autoencoder (1).pth (torch, 158725 bytes, 8 tensors)

encoder.0.weight f4 [32, 3, 3, 3]
00000000: 24ed 8f3d 8164 4b3d 74ec a3bd 974e aa3d
00000010: 6ddc 9dbd 550d b03d ee74 90bd 8e2a 023e
00000020: 18c8 3e3e 80e3 03be d584 823b 7ae4 a4bd
00000030: fc43 213e 3f8f 853d fdb7 0b3e 929f ae3b
00000040: d482 373e fa3c 4a3b 71fb 793b c1f3 293e
00000050: 5a55 153d 2bbb 1c3e 1e1b 223e badb 1bbe
00000060: 31be a13d 662d f3bd cca9 27bd b3df 0abe
00000070: 93b5 9c3d 94b1 04be 19f2 443e 2cc9 733d
00000080: c10c 29bd 15d4 873c 5ba4 503e a519 643e
00000090: 31a0 22be aa2a 123e f2be 28bb 168f 1b3e
000000a0: 0eeb 3e3e e789 2c3e 4bee 113e e811 d53d
000000b0: 758f 443b 2563 dabc afc3 8bbc 974b 43be
000000c0: 5207 b13d a5be cabd 5ae6 363d 0a22 103d
000000d0: 0c02 5a3b 459c 383d c6ff 75bd f242 fe3d
000000e0: de31 a33d 46a2 cfbc b50d 283e 1b6f 083e
000000f0: dd41 b5bc 42aa 653d e7fc 243e 7218 c83d
00000100: 3419 fcbd e3d0 b0bb 5c5c 5f3e a8e5 1a3e
00000110: 73c8 00be 2759 fbbc 0cfb a5bb 6e0b 213c
00000120: 9581 08bd aa48 10be 9096 203e 150a 35bd
00000130: 61b3 153e 20fe a83d ebe0 a43d 8e9e c739
00000140: ae1e 143e 47e1 a9bd a98d 1dbd aed7 993d
00000150: 0ecf d8bd 8ac2 833d 0edf 46ba d057 0ebe
00000160: a255 e9bd e858 a9bd 58a9 93bd 8406 0b3e
00000170: 399b 07be 7a1a 06bd c303 c33c 3d54 473d
00000180: 1200 2a3e ed5d 203e aa87 15be 2131 ddbd
00000190: c9ba 313e 07b6 1ebe de2d e63d 7766 3cbd
000001a0: 7a30 863d 4dbd 53bd d1bc 293d 5842 b63d
000001b0: fb23 17bc 71a1 c8bd a81b e43d 5ac0 dc3d
000001c0: 9cca c9bd ec7a 5f3e 4c51 10be dfea f9bd
000001d0: 313b cc3b 10b7 413e f95c fbbd b0fe d43d
000001e0: 4ad0 e63d 5544 10be e782 0b3c 9fed fbbd
000001f0: f526 d5bd b81b 05be 488b cc3d 17a2 f2bd
00000200: 2a0f 133d 1733 17bd c179 cdbd f5cf 6c3e
00000210: adf8 663b 2a5e c13d f103 6e3d 0fdb 06bd
00000220: 2590 5e3e 92f7 1a3e a012 ce3d e1df a4bd
00000230: 38c6 363e a0ab f53c 3e05 0fbe 8620 3a3d
00000240: 8b11 553e 9b3b e83c 96f0 a13c 2de4 bbbd
00000250: 957e 563d c984 843c cb08 0f3d e800 87bc
00000260: f4f5 093e 7253 d53d 394a ba3d b99e 5f3e
00000270: 8d3b 5e3e 0a90 2cbc 8599 a53d 4b17 9bbd
00000280: c734 ffbc d518 4b3b b72f 293e 5f56 ed3d
00000290: 9f71 9abd 916d 3f3e b2a7 253e e58c 823d
000002a0: 4e00 0b3d 91a4 17bc 64aa 023e 6ca8 0bbe
000002b0: 24ee bbbd fecd f33d 61e7 2f3e 9d6b 163e
000002c0: f6f2 0fbd c58e 0a3e 40d6 103e 4a2e baba
000002d0: a860 5fbd 9324 523e 7cf4 b6bd 5624 0c3e
000002e0: 53b2 02be b575 ad3d c399 f63d e4a1 0fbe
000002f0: 4cb1 98bd e4ac a0bd 386f babd 809b 97bc
00000300: 2ae0 123e 23aa 48bd 0d7d ecbd 9fe2 4c3e
00000310: 6085 063e 1f9f 2ebe 0176 edbd f177 f3bd
00000320: ca8b 333e 9e83 6fbd 3e3e b43d 201b acbd
00000330: 36fd c23d 19dd ca3d ba2e 4cbd 6b4e 1ebe
00000340: 2944 36bd c8b7 d5bc a8ab 4e3e b78e c43c
00000350: 95f1 ca3d 0298 033e d72e 31be be48 1cbe
00000360: 83b9 8fbc 617d 173e 40f6 bdbd 9d3e 433e
00000370: d5d2 213d ec6a b43d 9341 cc3d 5a04 3e3e
00000380: c9a1 173e ae43 df3d 324a 10be edab 1d3e
00000390: 6bd7 b53c 374f 373e d530 c33d d030 a53c
000003a0: 18a3 203e 770d de3d 21af 39be 760f 383c
000003b0: f810 0ebe b921 8cbd fee4 303e a0d6 9ebc
000003c0: c018 283d 0787 fc3d 3ac1 26be 1c90 083e
000003d0: 039f da3d 7cae 5e3d 56c2 c63c 4b36 1e3e
000003e0: 2e6d 84bd 2136 c5bd a5b9 083e eb77 d53d
000003f0: 39b6 563e 64f4 663d 2fac 503e bd10 083e
0.07027653 0.049656395 -0.08004084 0.08315771 -0.077080585 0.08596293 -0.070535526 0.12711546
0.18631017 -0.12879753 0.00398312 -0.08051391 0.1574859 0.06521463 0.13644405 0.005329081
0.17921 0.0030859099 0.0038144256 0.16596891 0.03645835 0.15305774 0.15830657 -0.15220538
0.07897604 -0.118738934 -0.040933415 -0.13561897 0.0765182 -0.12958366 0.19232978 0.059518024
-0.04127193 0.01658062 0.20375197 0.22275408 -0.1588142 0.14274088 -0.0025748578 0.15191302
0.18644354 0.1684948 0.14251058 0.10403806 0.0029992734 -0.026658604 -0.017061083 -0.19071804
0.08643974 -0.09899644 0.044653274 0.035188712 0.003326538 0.045070905 -0.060058378 0.124151126
0.07968496 -0.025345933 0.16411479 0.13323633 -0.022126133 0.056070574 0.161121 0.097702876
-0.123094946 -0.005395995 0.21812576 0.1512667 -0.12576465 -0.03068216 -0.0050653275 0.009829385
-0.033326704 -0.14090219 0.15682435 -0.044199068 0.14619209 0.082515955 0.08050712 0.0003807437
0.14464828 -0.08294921 -0.038465176 0.07511841 -0.105863675 0.0643359 -0.00075863383 -0.13900685
-0.11393286 -0.08268911 -0.07210034 0.13576704 -0.13242806 -0.032740094 0.023805505 0.04866432
0.1660159 0.1566083 -0.14602533 -0.10800386 0.17356409 -0.15499125 0.11239217 -0.045996156
0.06552215 -0.051694203 0.041439835 0.08899373 -0.009224887 -0.097964175 0.111380875 0.10778876
-0.09853098 0.21824235 -0.14093512 -0.12203001 0.006232642 0.18917489 -0.122735925 0.1040014
0.11270197 -0.14088567 0.008515096 -0.12301182 -0.10407821 -0.12998855 0.09987503 -0.118473224
0.035903133 -0.036913957 -0.10032988 0.23126204 0.0035243437 0.094417885 0.058109228 -0.032923754
0.21734674 0.15133503 0.10062146 -0.08050514 0.17849052 0.029989064 -0.13966843 0.045441173
0.20807473 0.028348735 0.01976804 -0.091743805 0.05236681 0.016176598 0.034920495 -0.016479924
0.1347273 0.104163066 0.09096188 0.21837892 0.21702404 -0.010532388 0.08085922 -0.07572802
-0.031153096 0.0030990143 0.16522108 0.115887396 -0.07541203 0.1869414 0.16177252 0.0637453
0.033935837 -0.009255544 0.12760311 -0.13638467 -0.09176281 0.11904524 0.17178108 0.14689489
-0.035143815 0.13531025 0.1414423 -0.0014204469 -0.054535538 0.20521764 -0.089333504 0.13685736
-0.12763338 0.084697165 0.120410465 -0.140266 -0.07455692 -0.07845476 -0.091032445 -0.018506765
0.14343324 -0.04899038 -0.11547289 0.20008324 0.13136816 -0.17052887 -0.11594773 -0.118881114
0.17533794 -0.05847513 0.08800934 -0.08403611 0.095209524 0.09905452 -0.04984925 -0.15459602
-0.044498596 -0.02608861 0.20182669 0.023993833 0.09909359 0.12850955 -0.17303024 -0.15262124
-0.017544514 0.14793922 -0.09275484 0.19066854 0.039507706 0.08809456 0.09973445 0.18556347
0.1480781 0.10901581 -0.14090803 0.15397616 0.022197446 0.17901312 0.09530798 0.020164877
0.15687215 0.10842412 -0.18133213 0.011234155 -0.1387366 -0.068423696 0.17274854 -0.01938945
0.04103923 0.12330442 -0.16284648 0.13336223 0.1067486 0.05436562 0.024262588 0.15450399
-0.06466137 -0.09629465 0.13352068 0.10423263 0.2096795 0.056385413 0.20378183 0.13287635

encoder.0.bias f4 [32]
00000000: 5750 81bd ac04 5a3e d36b 04be 72ff 643e
00000010: 6279 753d 5874 5a3e 07ac ebbd fc89 213e
00000020: 892d 613e 0272 12be 4a64 173e 9491 4e3e
00000030: 946c a93d e2b0 3d3e f57a 433e 44b9 343e
00000040: e3fa 04be 3703 dbbd 16a6 85bd 6399 ca3d
00000050: f119 3a3e e8e5 943d f752 f73d 943f 13be
00000060: 119a 2bbe 274c a9bd 8f35 1c3e f62b cb3d
00000070: 0658 10be 963e 1a3e a227 62bd 4d90 443e
-0.06314152 0.21290845 -0.12931757 0.2236307 0.059930213 0.21333444 -0.11507421 0.15775293
0.21990027 -0.14301303 0.14784351 0.20172721 0.08272663 0.18524507 0.19089873 0.17648798
-0.1298633 -0.106939726 -0.06525819 0.098925374 0.18173958 0.07270414 0.12076371 -0.14379722
-0.1675799 -0.08266478 0.15254806 0.09920494 -0.14096078 0.15062937 -0.055213578 0.19195671

encoder.2.weight f4 [64, 32, 3, 3]
00000000: 9b39 4c3d 7f09 b13d 7b18 a93d d62e 143d
00000010: d499 773c a312 303d a4b9 b0bc d06a 413d
00000020: 5e1b 8a3d de11 2abc bc7f 893b 84b4 bbbc
00000030: 44fe 5d3d 3c7f 173d 5b7d a0bc 0863 3abd
00000040: fe42 bbbc 88c4 033d 5040 103b ab1c 0b3d
00000050: 2c5b be3d 9534 d83c 2d83 253d f7d2 af3d
00000060: af9d 263c c79f babb ec06 e33c 3140 02bd
00000070: 93af a43c d195 9ebc 9154 013d b72d 3f3d
00000080: 831f 1f3d f2ac f33c f579 613c 4526 b8bc
00000090: 7a63 303c 6cd8 4a3d f437 ccbc c14b 593c
000000a0: 1868 083d aa7d 32bd d96c cf3d 7128 9fbc
000000b0: 83a8 74bc 66f4 b23c bfae b73b b307 423d
000000c0: 4b93 f53c 9c10 e6bc ba00 903d a346 1d3c
000000d0: 1b36 db3c dada a53b 51c5 393d a1d1 123d
000000e0: 83b3 153d 815c 443d 0573 913d 8937 1b3d
000000f0: f942 0c3d 46ef 1a3d 6ba7 303d 9d8b 9cbc
00000100: adc2 d2bb e85c b4bc 6352 60bc b2cf 83bd
00000110: efa9 ff3b fda7 683c 7753 a7bc eead 91bd
00000120: bfbc 0dbd eac6 80bc b730 b4bc 1b98 31bd
00000130: 4966 ac3c e15a 1b3d 0286 19bd 9e7f a23c
00000140: f5b0 08bd 741c 013c d3c1 a33d 2bd4 783d
00000150: 21f8 8d3d 5489 303d bb66 a23d 5f73 1a3c
00000160: 1bfa b03b a10e ba3d bae0 7b3d 54bb 573d
00000170: 77aa 8bbc 50ba d43b 9cab 9e3d 6c2c 93bd
00000180: 2e12 7d3d 4656 e0bc 7df5 d7b8 0155 863c
00000190: 8914 7abd cdcb 1dbd 9b3c 82bd 1303 20bd
000001a0: 170d 9d3c 7766 46bc c9f0 59bb b52f 9cbd
000001b0: 036d c7bc 29d0 5cbd 3524 a5bc 2297 f1bc
000001c0: d6a8 c73c ba91 033d fc9c 413d 202d 1a3c
000001d0: 17bc b6ba dd58 543d 6c98 603d 8222 f03c
000001e0: 72d9 33bd f7b8 96bc a93d 373d 6906 6f3d
000001f0: d772 6d3c 1f46 5dba ba92 3abd 35a1 433d
00000200: 31c2 28bd 85cc 283d a093 22bd eb78 863d
00000210: c306 3abd 015a 1bbd 843a 133d ac01 963c
00000220: fba8 9bbc 9492 e2bc af5d 423d 99d6 35bd
00000230: adc5 07bb 18c6 df3c 2fa2 bc3c b356 a13c
00000240: 0dba 6d3d 0bc9 a23b 0a99 9ebc d9c6 0c3d
00000250: 39b0 293d 064e 3b3d fd12 98bc 2381 36bc
00000260: 34e7 01bd 3eb2 c83c 0ce2 6b3d f1f3 983d
00000270: 48a9 bd3c bd12 813d 6d25 173d 2d2f 9e3d
00000280: 43f0 ac3c dfae ce3d cf1f eabc 71f6 8fbc
00000290: 56a8 1cbd d3d0 94bd 66ef 293d a5eb 503d
000002a0: 072d 89bc ed40 763d d153 673d b29a d3bc
000002b0: 9ebe 40bd 6919 52bb 8b9c 773d 8a87 7f3d
000002c0: f6d1 373d aee3 9bbc 3c0f 433d 5224 44bc
000002d0: c602 dc3b 7f53 983c d24d 9c3c f19b 4d3d
000002e0: e796 52bd 39a1 463d b361 92bc 1e7f 243d
000002f0: 69b6 093d ed56 4dbc 45f1 89bd 5ee9 d3bc
00000300: bd4d 353d a5bc 403d d256 d8ba f911 7bbd
00000310: aee7 98bd 18c5 0e3c afa1 4dbb 06e8 c3bd
00000320: 1eab b8bb c280 8cbd 21b9 bdbd 3f2d 03bd
00000330: efa6 973c c553 803c 5396 aabd 68d5 803d
00000340: 776a 413d 09b2 05bc a6c8 ad3d bb1c 1c3d
00000350: 8324 133d c0ee 313d 7a0b 1d3c f6cf 29ba
00000360: 5897 6dbd 8bd2 2b3d d19e 9f3c bedc 8f3c
00000370: 77d0 3dbd 7a67 603b 0986 21bd db42 53bc
00000380: e2d9 46bd 0f48 77bd 5a51 e1bc fe32 c4bc
00000390: a569 8a3c 9f60 01bd bb00 bd3c 9cf6 353c
000003a0: 9657 1f3c 4501 293b 771a 72bd 9f3e 14bd
000003b0: 931f fabc b366 90bb 3b74 10bd 0055 37bd
000003c0: e6b8 88bd 806f 5bbc 70d9 693c e69c a9bc
000003d0: 1650 d13c b51b 82bd f206 2b3c e16b 36bd
000003e0: 599d eabc 4f8b 74bd 8351 05bc 8f87 c1bd
000003f0: b7aa 503d b0e9 61bd 1e16 c5bc 8cd7 5dbd
0.049859624 0.08644389 0.082566224 0.03617748 0.015112359 0.042986523 -0.021572895 0.047221005
0.06743501 -0.010380236 0.0041961353 -0.022913225 0.054197565 0.036986575 -0.019591024 -0.0455046
-0.022859093 0.03216985 0.002201099 0.033962887 0.092947334 0.02639226 0.040408302 0.0858516
0.010169431 -0.0056953165 0.027713262 -0.0317995 0.020103252 -0.019358547 0.03157479 0.046674456
0.03884841 0.029745553 0.013761987 -0.022479186 0.010765905 0.049522802 -0.024929024 0.01326269
0.033302397 -0.043576874 0.10128183 -0.019428464 -0.014932754 0.021845054 0.005605548 0.047370624
0.029977461 -0.028084092 0.070313886 0.009599361 0.026759198 0.0050614895 0.04535419 0.03584445
0.03654815 0.04793978 0.07102016 0.03789476 0.034243558 0.037825845 0.043128412 -0.019109542
-0.0064318986 -0.022016957 -0.0136915175 -0.06436099 0.00780224 0.014200208 -0.020425541 -0.071132526
-0.03460383 -0.01571985 -0.021995885 -0.04335795 0.021044867 0.037928466 -0.037481315 0.019836243
-0.033371884 0.007880319 0.079959534 0.060749214 0.069320925 0.043099716 0.079297505 0.009426921
0.0054009086 0.090848215 0.061493613 0.052668884 -0.017049057 0.0064919367 0.07747576 -0.07186207
0.061784916 -0.027384888 -0.00010297725 0.016397955 -0.06105474 -0.038524438 -0.06359216 -0.03906543
0.01917128 -0.01210939 -0.0033255091 -0.07626287 -0.024343973 -0.053909454 -0.020158866 -0.029491011
0.0243725 0.032121398 0.047268853 0.009410173 -0.0013941553 0.05184256 0.05483286 0.02931333
-0.043908544 -0.018398745 0.044736538 0.058355723 0.014492712 -0.000844093 -0.045550086 0.04776116
-0.04120082 0.04121067 -0.039691567 0.06566032 -0.045416605 -0.03792763 0.035944477 0.018311344
-0.019001475 -0.027657785 0.047452625 -0.04439411 -0.002071719 0.027316138 0.023026554 0.019694662
0.05803876 0.004967814 -0.019360084 0.034369323 0.041427825 0.045728706 -0.018563742 -0.011139187
-0.031714633 0.024499055 0.057588622 0.07468403 0.023152009 0.06302402 0.036900926 0.07723842
0.02111066 0.10091948 -0.02857962 -0.017573567 -0.038246475 -0.072663926 0.041488074 0.051005978
-0.016745104 0.06012051 0.056476418 -0.0258306 -0.047056787 -0.0032058603 0.060452025 0.06238512
0.04487797 -0.019029465 0.04762195 -0.01197155 0.006714198 0.018594502 0.019080076 0.050197545
-0.051413443 0.048493598 -0.017868852 0.04016029 0.033621226 -0.012532932 -0.06735472 -0.025868114
0.04426359 0.047054905 -0.0016505367 -0.061296437 -0.074660644 0.008713983 -0.0031376889 -0.09565739
-0.005635633 -0.06860496 -0.09263826 -0.032025572 0.018512217 0.015664944 -0.08329453 0.06290704
0.047220673 -0.008160123 0.08485536 0.038113337 0.035923492 0.04344058 0.009585256 -0.0006477827
-0.05800566 0.041948836 0.01948491 0.017561313 -0.046341386 0.0034241364 -0.039434467 -0.012894358
-0.048547633 -0.060371455 -0.027504612 -0.023950096 0.016896078 -0.031586286 0.023071637 0.01110616
0.009725472 0.002578811 -0.05910727 -0.036192533 -0.030532634 -0.004406774 -0.035267096 -0.044758797
-0.066758916 -0.013393283 0.014273033 -0.020704698 0.025550883 -0.06352941 0.010438668 -0.044536475
-0.028639482 -0.059703168 -0.00813711 -0.09449684 0.050944056 -0.055154502 -0.024058398 -0.05416064

encoder.2.bias f4 [64]
00000000: d560 e03c 9061 3bbc 45e4 073d 90bb 813c
00000010: b590 113d 32a0 70bd 00c5 44bd 0dda 353d
00000020: 250c 14bd fe29 02bd 180c cdbc f3fb 18bc
00000030: f274 04bd 0b9b 533d 42cd 0cbd d1d5 7e3c
00000040: c8d4 b5bc 389b 5f3c 1d53 b83d 4dba 3e3b
00000050: 7307 883d 0991 9b3c ab05 78bd 6a08 893d
00000060: fa87 9c3c d937 053d 0a74 c43c 7b7d 373a
00000070: b38e 913d 0246 1c3d 0b75 5f3d 7bf1 f53c
00000080: 1b7c 06bc 38ac ba3d d30b 2d3d 756c 34bd
00000090: 2a96 69bd 5915 943c e7f5 6fbd fcc6 5fba
000000a0: c789 c33d 4a08 78bc afa2 123d 409b f23b
000000b0: 4108 6ebd 83dc bf3d bc58 a0bc 8690 60bc
000000c0: 214e 31bb 9c71 87bd 85b6 d0bb 2e07 a0bb
000000d0: 3023 623d 9fd8 b33c 4a89 1e3d d7e6 233d
000000e0: 06cd 913d 76a0 04bd 5c97 2abc ced5 863c
000000f0: b961 053d 42ec 29ba 5a1b 283d 4f2d 11bd
0.027389923 -0.011436835 0.03317668 0.015836507 0.035538394 -0.058746524 -0.048039436 0.044397403
-0.036144394 -0.031778328 -0.02503018 -0.009337413 -0.03233809 0.051661532 -0.034375437 0.0155539075
-0.022196189 0.013647847 0.090002276 0.0029102743 0.06642046 0.018990057 -0.06055228 0.06691058
0.019107807 0.032523964 0.023981113 0.0006999594 0.07107296 0.038152702 0.05455498 0.030022373
-0.0082083 0.09114879 0.042247605 -0.044048745 -0.057027973 0.018076586 -0.05858412 -0.0008536426
0.09547763 -0.015138695 0.03579968 0.007403761 -0.05811334 0.09368231 -0.019573562 -0.013706332
-0.0027054625 -0.06613466 -0.0063694143 -0.0048836684 0.05520934 0.021953879 0.038705148 0.040015068
0.07119183 -0.03237959 -0.010412063 0.016459372 0.0325639 -0.00064820435 0.04104171 -0.0354436

decoder.0.weight f4 [64, 32, 3, 3]
00000000: 9538 8e3d 0874 a63b 3688 523d 21da 04bd
00000010: 6499 913b fd32 f63c 6bf0 043d 3526 453d
00000020: ecee 083d e611 a5bd 059c 97bd 718b 83bd
00000030: b2fc 17bd d97d 38ba 501f 063d 6806 0abd
00000040: d930 9ebd 7c84 b1bc 3ed7 1db8 a2dc 563d
00000050: df2d 833d 0d2e 523c 3a13 843d d21a 153d
00000060: 0866 a6bc 5437 4a3d e32b c33c 6334 32bd
00000070: 4937 5abc 74fd 41bd 49f5 d0bd 29f4 c6bc
00000080: db4f 81bd 0f2a 86bd 0c12 093c 17b7 783c
00000090: 4b4b 7a3d acb3 25bc 1a83 0e3d 5bb2 20bd
000000a0: 7d60 593d 2b0d ee3c 704a 2c3d 7d04 8cbd
000000b0: 0e93 81bc 9b52 07bd 57a4 a23d decf 43bd
000000c0: 3533 fdba 36c6 c13d f2f8 5cbd 660d 75bd
000000d0: c407 da3c 9c36 1abd 9f7e 8dba 7af0 8abc
000000e0: c4c4 083b 4d3a 1d3d 77a9 21bd 93a3 62bd
000000f0: c95b ff3c e475 743c 8133 4a3c a3b1 673d
00000100: c7ff 313d b925 933c 7ef0 383d 9911 563c
00000110: bef5 7e3d b935 683c 67f9 07bc 8e4e 3abd
00000120: 1d3d 8ebd a430 3abd 25c7 8cba ad73 58bd
00000130: fe97 353b bf2d 1cbc ffe3 083d 5a29 1abd
00000140: 74b8 5e3c 9e02 4bbd 4671 563c d0e7 8fbc
00000150: 9857 843d f8af 08bd d5a7 6ebd b211 783d
00000160: 94c5 36bd f320 0c3d d741 91bd f8f0 90bb
00000170: 7d06 3cbc 7dda 8ebb c96d 893d b1c6 59bd
00000180: 03cd 28bd 7f68 85bd 2a81 80bd eca3 263c
00000190: 5919 46bd ed83 94bb 851c 3e3c 2131 8fbd
000001a0: fd3e 88bd c6dd e4bc 7a52 7abd 9258 94bd
000001b0: 3462 563d 52e0 55bc fda7 583d a559 83bc
000001c0: 1c20 803d cd2f 403d cfc0 d6bc 6575 c13d
000001d0: 113f 553d 96d1 863d d296 b23d 0c58 643d
000001e0: 7b62 13bd 2247 26ba ffc2 393d a4af a8bc
000001f0: 9813 48bc 758d 503c d6a9 96bb e8d9 fe3c
00000200: 44ad a9bc ea49 32bd 127f 3fbb db74 39bd
00000210: 83b4 20bd ce60 38bd c3ea 4b3d 0fb3 8e3d
00000220: 7563 9c3c 2266 4a3d 3851 363d f321 a13d
00000230: d677 9e3d aa65 6c3c d18d 1fbc 3117 d43c
00000240: 31c6 923b 20d3 6dbc a8db 3f3b c32d 34bd
00000250: 3958 ddbc 9266 563d 7bee 983c bd50 8abc
00000260: 4968 e43c e6d3 79bd 3dfe 8bbd 3ea4 10bd
00000270: 7213 013d 6424 fc3c abf4 343d 6dad 77bc
00000280: 6ce6 133d 8dba 293c 6496 f93c 38de 9c3b
00000290: 7841 90bc 1e27 403d 2dda bdbc 5d81 053c
000002a0: 1cc9 89bc a6f0 373c d02f 26bd 97ee 6c3c
000002b0: 6c6c 9a3c 8fd3 223d 81d6 3ebc a614 083d
000002c0: 56ec 163c 6096 483c fa5f 82bd fff5 23bc
000002d0: 69ec ba3d caba a43b a404 ce3c 6c2c 683d
000002e0: b5af 99bc 41ed bd3d ef26 6b3c 7940 713c
000002f0: 2d4e 653d 1831 33bd f2c8 053d 1880 6fbd
00000300: 0c9e a23d 2be0 d7ba c04e 943c b89b 3c3d
00000310: ae6c 48bc db75 8dbc 08ae 38bc d78b cfbc
00000320: ac55 adbc 7ed7 7abd 1eb0 2d3d 8b03 7ebd
00000330: b534 923c 50e6 7cbd 08cd e23c 5172 09bd
00000340: 1122 54bd 7b0b 003d 940a 6c3d 8d6d 2cbd
00000350: 980f b1bc 389e e1bc 7b59 82bd 29f1 013b
00000360: e83d c93c 8b17 083c 808b 83bd b6b8 10bc
00000370: 500a d63c e550 333d 2627 dcbc 4c60 1bbd
00000380: 7025 85bd 73b8 73bb 4cee 4abd 6df4 8fbc
00000390: bccf 8d3c 598b 16bd d962 2f3d 1476 0a3d
000003a0: b8ea 863c c06b e73c e421 8ebc a9aa 643c
000003b0: 922e dc3c 8883 c53c 3c1f f43c 5fdc 443d
000003c0: 8698 0cbd 4910 d6bc 8943 763d fbf7 873c
000003d0: e081 d8bc a932 bebb 10a6 00bd 5933 acbd
000003e0: 139f fbbc 104d 683d 68c0 423c a308 023d
000003f0: 396f b8bc 43e2 d53c 9a36 58bd 931b b5bc
0.06944386 0.00507975 0.051399432 -0.032434586 0.0044433344 0.03005361 0.032455843 0.04813214
0.03343098 -0.080600545 -0.07402805 -0.06423081 -0.037106223 -0.0007037796 0.032744706 -0.033697516
-0.07724161 -0.021669619 -3.7632177e-05 0.052456506 0.064052336 0.012828362 0.0644898 0.03640253
-0.020312324 0.04936917 0.023824638 -0.04350699 -0.013318845 -0.047360852 -0.102030344 -0.024286347
-0.06314059 -0.06550991 0.008366119 0.015180371 0.06110696 -0.010113638 0.034792997 -0.039232593
0.053070534 0.029059013 0.042063177 -0.068367936 -0.015817191 -0.033037763 0.079415016 -0.04780566
-0.0019317629 0.09461634 -0.05394835 -0.05982723 0.026615031 -0.037649736 -0.0010795182 -0.016960371
0.0020869235 0.038385678 -0.039468255 -0.055331778 0.031171696 0.014920685 0.012341381 0.056565892
0.04345682 0.017962324 0.045151226 0.013065719 0.062246077 0.014172965 -0.008299208 -0.04548507
-0.0694525 -0.045456544 -0.0010740502 -0.052844692 0.0027709003 -0.009532391 0.03342056 -0.037637092
0.013593782 -0.049563043 0.01308853 -0.017566592 0.0646202 -0.033370942 -0.058265526 0.06056375
-0.04462202 0.03421111 -0.07092636 -0.004423257 -0.011476156 -0.004359542 0.06710393 -0.053168003
-0.04121114 -0.06514072 -0.06274636 0.010170918 -0.048364017 -0.0045323283 0.011603479 -0.069917925
-0.06652639 -0.027937781 -0.061113812 -0.07243456 0.052339748 -0.01305397 0.05289458 -0.016033957
0.062561244 0.046920586 -0.026214985 0.09446219 0.052062098 0.06582944 0.08720173 0.05574803
-0.03598259 -0.0006342997 0.04535198 -0.020591564 -0.012211703 0.0127290385 -0.0045978827 0.031109765
-0.020712502 -0.04352752 -0.0029220027 -0.045277458 -0.03923465 -0.045014195 0.049784433 0.069677465
0.019090394 0.049413808 0.04451105 0.078678034 0.07737701 0.0144285355 -0.0097384015 0.025889965
0.0044791927 -0.014515668 0.0029275212 -0.043988954 -0.027019607 0.052343912 0.018668404 -0.016884202
0.027881758 -0.060993098 -0.068356015 -0.035312884 0.031512685 0.030779071 0.044178646 -0.0151170315
0.03610842 0.010359419 0.03046722 0.0047872327 -0.017609343 0.046912305 -0.023175323 0.008148518
-0.01681953 0.011226809 -0.04057294 0.014461181 0.018850528 0.03975254 -0.011647821 0.033222817
0.00921162 0.012242883 -0.06365962 -0.0100073805 0.09127123 0.00502715 0.025148697 0.05668299
-0.018760541 0.09273768 0.014352544 0.014724844 0.055982757 -0.04374799 0.03266234 -0.05847177
0.07940301 -0.0016470006 0.018103957 0.046046942 -0.0122329425 -0.017268112 -0.011271961 -0.025335236
-0.021159016 -0.061240666 0.042404287 -0.062015098 0.017847398 -0.06174308 0.027685657 -0.033556286
-0.0517903 0.03126095 0.057627276 -0.042096663 -0.021613881 -0.027541265 -0.06364723 0.001982758
0.024565652 0.008306394 -0.06423092 -0.008833101 0.026127964 0.04377832 -0.026874136 -0.037933633
-0.06501281 -0.0037188798 -0.049543664 -0.017572606 0.01731097 -0.036753986 0.042818878 0.033804014
0.016469344 0.028249621 -0.017350145 0.013956704 0.026877675 0.02411057 0.02980005 0.048061725
-0.034325145 -0.026130812 0.060123 0.016597738 -0.026429117 -0.005804379 -0.03140837 -0.08408231
-0.030715501 0.056714118 0.011886694 0.031746518 -0.022513973 0.026108867 -0.052786447 -0.022107875

decoder.0.bias f4 [32]
00000000: 0536 7fbc 508c 153d f645 83bb 72ad d6bb
00000010: f6d2 27bb 9d83 903b 97d8 06bc bf1d fbbc
00000020: 1a35 e53d 97d7 a13d a43e c03d 2466 883d
00000030: b14f 0a3d cbe0 ecbc 56b4 a03c c648 0cbd
00000040: d464 17bd 2e9e 08bd 93c2 50bd f3a6 f83b
00000050: 2c41 e1bc a421 41bd f9dd 42bd 8736 0bbd
00000060: ccce ae3d 2c9b 8a3d e2d7 28bb 8847 423d
00000070: 2408 323d 4be5 50bd ed0e 4b3d 1c9f 833d
-0.015576844 0.036510766 -0.0040061427 -0.006551438 -0.002560792 0.004410221 -0.00823035 -0.030653832
0.11191769 0.079024486 0.09386948 0.06660107 0.033767406 -0.028915783 0.01961724 -0.03424909
-0.03696139 -0.033353977 -0.05096681 0.0075882613 -0.027496897 -0.047151223 -0.04757497 -0.03398755
0.08535537 0.06767878 -0.0025763442 0.0474315 0.043464795 -0.05099992 0.04957478 0.06426832

decoder.2.weight f4 [32, 3, 3, 3]
00000000: d612 7f3d e812 8dbc 1988 2b3e 5971 353d
00000010: 7bde 8abd d963 743d cc75 3bbd 4432 4fbd
00000020: 5d08 66bd f324 643d 394f 923d 5309 2bbe
00000030: c52b df3d a471 773e e83c 78bd 0221 eb3d
00000040: f115 6c3e 2e72 d8bd 790c 653d b187 c93b
00000050: 8058 46bd d708 c9bd 41c9 a5bc ed39 913d
00000060: 613a 143e 61f9 0d3d 768b 4e3d a329 0abe
00000070: cdb3 5fbd 096b 983c 023c edbd a485 59be
00000080: f31e 1bbd 1d89 8abd 7189 1abe f7cf 25be
00000090: 2479 09be a2fd 0a3d 4397 8b3c 10e6 a23b
000000a0: 1b25 05bc 91aa 853d 5c4b 223e f0b4 f93d
000000b0: 2021 47be af27 10be 7834 2b3d c108 b0bd
000000c0: a4eb 71bd 24ca 6fbe e8a4 babd 65ad 583c
000000d0: e734 c13d 8ae8 08be b565 183e 18ef 853d
000000e0: 6180 cfbd 6df2 09bd 7f57 633e 9831 14bd
000000f0: 810f c33d c8eb ca39 81a7 4f3e 5568 9bbd
00000100: 17e4 e1bc 7693 3a3e 209d df3b d919 563e
00000110: b759 2c3d c578 90bc 34fc 653d 2194 1ebe
00000120: 1712 973d be89 7fbd 04d8 43bb a90d 48be
00000130: 114f 943d ef1d ba3c 7c4b acbd 9713 12be
00000140: b293 563d 48b4 353e fef3 d5bc cb90 d3bd
00000150: 2c96 283e 51cd 24bd 4f17 5f3e 35bb 58bd
00000160: 1d36 cebc 4667 763d 82ac e33d 494b 4ebe
00000170: 3c7a 4a3e 1bf6 0ebe b9ad 43be 5867 1b3e
00000180: 24b4 1dbe 31c9 8f3d e710 063e a85d 59bd
00000190: 283d 24be f7a1 23be da63 4dbe d02b 093d
000001a0: 3021 48be c64d 0bbe a9dc 1ebe 3e3a e53d
000001b0: 33b9 60bb 4700 73bc afb4 f1bd 6a18 103d
000001c0: f9e3 49bc 7a91 1bbd 9f43 1a3e 59e3 d2bd
000001d0: e0d0 ee3d 18f7 dabd 9c6c 41bc dad8 f8bd
000001e0: 003d 0abe a42f 5ebe b84e 793d 3425 0fbd
000001f0: ab90 c13d b094 0bbe 0d87 113b 6655 c53c
00000200: ff09 aa3d d90c 2ebc b0ce dfbd 72ac dfbd
00000210: 972d 35be 7d79 46bd a775 023e df6f 4a3e
00000220: 3a64 dbbd 06c3 233e c022 103e 5816 1f3d
00000230: a10e 2f3e f72b 3c3e b1e9 81bd d808 dd3d
00000240: 316b c1bd 4846 f3bd e9c1 90bd fc64 e33d
00000250: af36 d8bd f964 293e 11ed 84bd 60c0 ae3d
00000260: 2499 d53d cc19 0a3e 863b 5fbd 430b 9a3d
00000270: f381 5b3e 0058 6b3e 0646 d63d 4bbd 11be
00000280: cbd8 613e 062c 3cbd f7f0 d43d 98c1 1a3e
00000290: fba5 bf3d 5e15 2b3e c6de 1e3e 81d6 503c
000002a0: 564f fbbb 60a1 3abc a77b a83d 0165 243e
000002b0: f6db 543e 4cd0 edbc d949 423e 750d ad3c
000002c0: 0fc6 433c 057a 0bbd 92fb adbd 6f87 cf3d
000002d0: af98 30bd a86a 6fbd 8acd 293e efce 14bc
000002e0: a047 d4bd ab02 00be 54f8 c13d b4f5 aebd
000002f0: 7f04 15be 2088 b9bd bb68 edbd 1402 113e
00000300: 09ac b53d e34f bb3c 3348 f43d 55fa 1b3e
00000310: 2595 c9bd 8d41 aa3d d0ae e9bd 4475 023d
00000320: 8cb6 24bd db4d 653d 7bcf b9bc 63fb 2e3e
00000330: 28a7 4e3e 5d6b fbbd c0d5 d53d 47e3 5fbd
00000340: f1cd 72bc 6fec d6bc 37ec f03d 22a6 8d3d
00000350: 31f3 153e 2ab2 733e 2ae4 0e3d 6491 373e
00000360: c4f1 1d3e fd80 4cbe 6bad f13d 5972 33be
00000370: d2ee 17be 4db8 b13c 7a84 d03d 50ee 22be
00000380: 8505 43bd e44f 023e 7b67 48be e8a9 133d
00000390: 7d5d 7bbd 6657 3abd d5ad 90bc 91a5 3bbe
000003a0: 0adc 7fbe 7084 bd3d 693d 01be 926e 69be
000003b0: bdb4 113c 4b3b fcbd a83b dbbd 4f61 3ebe
000003c0: 2ec4 c1bd ed63 023e decd ef3d ab5b 28be
000003d0: ef9c 323d 6424 243e 11f1 4bbe dd0a 66be
000003e0: 75a4 dfbc 446b b6bd 3acd 35be bc3d 14be
000003f0: 8363 41be 5fbf 103c b6d4 623d 7461 59be
0.062273823 -0.01722093 0.16751136 0.04429755 -0.06780716 0.059665535 -0.045766637 -0.050585046
-0.05616032 0.0556993 0.07144017 -0.16702776 0.1089702 0.24164444 -0.06060496 0.11480905
0.23055245 -0.10568653 0.055920098 0.006150209 -0.048424244 -0.09816139 -0.020237567 0.070911266
0.14475395 0.034661654 0.05042597 -0.13492446 -0.05461483 0.018605726 -0.11583711 -0.21242386
-0.037871312 -0.067644335 -0.15091492 -0.16192614 -0.13425118 0.03393329 0.0170399 0.0049712732
-0.008126522 0.065266736 0.1584906 0.12192714 -0.1944623 -0.14077638 0.041798085 -0.0859542
-0.059062615 -0.23416954 -0.091134846 0.013224934 0.094339184 -0.13369957 0.14882548 0.06539744
-0.10131908 -0.03367846 0.22201346 -0.03618011 0.095244415 0.00038704113 0.20278741 -0.07588259
-0.027574582 0.18220314 0.0068241507 0.20908298 0.042077746 -0.017635712 0.056148723 -0.15486194
0.07376497 -0.06238722 -0.0029883394 -0.19536461 0.07241643 0.022719352 -0.08412835 -0.14265285
0.052386947 0.17744553 -0.026117321 -0.103303514 0.16463536 -0.040234867 0.21786235 -0.05291291
-0.025172288 0.060157083 0.11116888 -0.20145907 0.19773191 -0.1396107 -0.19109239 0.15176141
-0.1540075 0.07020796 0.13092385 -0.053067833 -0.16038954 -0.15979753 -0.20057622 0.03348905
-0.1954391 -0.13603887 -0.15513863 0.111927494 -0.0034290075 -0.014831609 -0.11802041 0.035179533
-0.012322419 -0.037980534 0.15064858 -0.102972694 0.116609335 -0.10691661 -0.01180568 -0.12150736
-0.13499832 -0.21697861 0.060866088 -0.03494759 0.09451421 -0.13630939 0.002220574 0.024088573
0.08302688 -0.01062318 -0.109280944 -0.10921563 -0.17693172 -0.048455704 0.12740193 0.19769238
-0.10712476 0.15992364 0.14075756 0.038839668 0.17095424 0.18376146 -0.06343401 0.107927024
-0.09444273 -0.118786395 -0.070682354 0.111032456 -0.10557305 0.16542424 -0.06490529 0.08532786
0.104296 0.13486403 -0.054500125 0.07521679 0.2143629 0.22982788 0.10462575 -0.14232366
0.22055356 -0.04594042 0.10397523 0.15112913 0.0935783 0.1670737 0.15514669 0.012746454
-0.0076693697 -0.011391014 0.0822671 0.16054155 0.20787033 -0.029029988 0.18973483 0.02112458
0.011949076 -0.034051914 -0.08495249 0.10133254 -0.04311436 -0.058451325 0.16582313 -0.00908254
-0.10365224 -0.12501018 0.09471193 -0.08542958 -0.14552496 -0.09059167 -0.115922414 0.14160949
0.08870704 0.022865241 0.119278334 0.15232213 -0.098429 0.08313284 -0.11410296 0.031850114
-0.040213153 0.055982452 -0.022681942 0.17088084 0.20180953 -0.12276337 0.1044116 -0.054660108
-0.014819608 -0.026235787 0.117638044 0.06916453 0.14643551 0.23798433 0.034885563 0.17926556
0.15424258 -0.1997108 0.11800655 -0.17524089 -0.14837196 0.021694327 0.10181518 -0.15911222
-0.047612686 0.12725788 -0.19570725 0.036050707 -0.061368454 -0.045493506 -0.017661015 -0.18324877
-0.24986282 0.09253776 -0.12621082 -0.22796085 0.008893189 -0.12315997 -0.10704738 -0.18591808
-0.094612464 0.12733431 0.11709188 -0.16441219 0.043606695 0.16029507 -0.19916178 -0.22465082
-0.027300099 -0.08907178 -0.17754069 -0.14476675 -0.18885617 0.008834689 0.05537864 -0.21228582

decoder.2.bias f4 [3]
00000000: 80a1 7cbd 5fcc 22be 9787 55bc
-0.061677456 -0.15898274 -0.013032815
